Assignment2/weights-15-True-0.001-2021-10-17_19_47_46.143795.npy (npy, 62928 bytes, 1 tensors)

array f8 [10, 785]
00000000: 3836 b79d d616 edbf 4866 88f7 6a88 b13f
00000010: 34f4 f05d e0f3 d6bf 34cd 7dfb 5500 c63f
00000020: 8e68 bb4c 004c d63f 3e9c 8e72 1506 dcbf
00000030: 3858 74ef 865f bcbf 52c7 fdb0 84e2 d9bf
00000040: c2ad 9724 ed28 d23f b47c 3421 48eb cb3f
00000050: 4253 6689 5669 d6bf 641d 9f53 b15c ca3f
00000060: 7a31 9239 930a d9bf 3a18 a794 1c79 dfbf
00000070: 80ba fc35 e058 8e3f 1cf8 e8d1 7e71 d53f
00000080: b00e a126 eb18 b8bf 708d 8b80 a0f8 a63f
00000090: 9677 8538 f8ae de3f 10d3 4326 bb99 d6bf
000000a0: 9c4b 5f9a 21bb dfbf 983a 518f b836 d2bf
000000b0: 826a f5f1 e096 dd3f a811 19ae 9bf9 d2bf
000000c0: 88ab 8328 5035 cc3f b80b 1257 7672 ddbf
000000d0: d0cc 9825 954a af3f d4d3 b94c e225 d9bf
000000e0: d4ee 327a 16e4 d83f d8db 3dd1 bfc0 dc3f
000000f0: c4d9 6f4b e01b d1bf e86e 07ca 3e57 d3bf
00000100: 6091 f5e3 2c08 acbf 687e a90b f92f cebf
00000110: e06d fe25 b340 aabf dc71 1719 d0fc c23f
00000120: 0ac5 cf84 937c df3f 6c11 d7f9 8688 c23f
00000130: 4e57 d28f 0dad a53f e84e 893b 6685 d33f
00000140: 3ef6 cb51 e0b9 da3f 4352 021c 3d4a b5bf
00000150: 7866 4655 bc28 b6bf e32f 135a 286e c23f
00000160: 7a5e e0a5 3f3e aebf ebd0 1b9c ac97 b6bf
00000170: 2d8e 1c90 9a32 d9bf 6ca5 c76c 5195 c23f
00000180: 789b 17b9 e8a9 c1bf 40a9 06e7 f374 cabf
00000190: 2836 37fa 3b25 d33f c0fb ae20 0bdc 9abf
000001a0: b8a9 12dc 5d63 c0bf 2007 7a9b c42c d93f
000001b0: 3028 3886 ae82 c13f 00d7 8f60 38bb 853f
000001c0: 40f6 cd6e 5825 98bf 9053 2e2e afec b2bf
000001d0: 60a8 6f29 dde5 97bf d4da 9879 6c35 df3f
000001e0: 08b0 87a7 0e0b babf 74ad 18e3 95b9 d63f
000001f0: 8003 c2a3 7351 d43f 6e78 26ce 90c2 db3f
00000200: da73 a19f a429 d23f 6a22 c0fb a20a dbbf
00000210: 0e27 1f4b bc7e b7bf 77a9 8fa0 d019 d3bf
00000220: 7bcd 36b6 e3f1 d5bf 1e35 55fd dbcf c63f
00000230: 2069 63b5 485c d8bf 91eb c979 75ce d3bf
00000240: fb61 aa78 939a cdbf 5a26 ab12 2f00 d63f
00000250: a450 5b1a 18fb c6bf a388 897d f17b d13f
00000260: c0d9 d0b0 2a2a c1bf 7ae2 0f93 4786 d13f
00000270: f4a6 855f 9c05 d8bf bdeb e9d7 2b9b c93f
00000280: 9e14 8916 9a2f a43f 2733 bdfa f2e7 d63f
00000290: b0b1 5690 f8e9 d9bf cc7a 1893 90d9 d7bf
000002a0: 1aa5 dbbb dad1 d6bf 5a05 8c92 9b77 d13f
000002b0: d490 32fc 671d c33f 2e4e 5d46 6ed6 d63f
000002c0: 7855 a570 7d65 b4bf 2ce4 f9e9 cdcb ccbf
000002d0: 5738 d714 5d7d cabf 9646 dcea 8ca2 cbbf
000002e0: 479a 3587 43de bc3f 6b0d bea7 c639 b9bf
000002f0: 139a 6185 18e0 ddbf b5c1 d45e 5eb8 d1bf
00000300: cbbf 9029 ac6b ba3f cac6 404c 4af2 d4bf
00000310: 978c 9580 f2c2 a83f 3a1f bb39 4251 9e3f
00000320: 973a 38b7 7834 a73f 88d9 f850 5cc1 ccbf
00000330: 2c1d 5e93 5af8 c5bf 1ff3 cb55 98c4 cfbf
00000340: 6e1f 3e72 5b72 c6bf 19e0 f030 4303 c8bf
00000350: 642b 8b86 a5b2 d5bf 1587 d3bb d988 b7bf
00000360: 7a48 1024 e39c d0bf c173 709d 9277 d0bf
00000370: 4e4f 4762 171c 9ebf b5f8 a7ac 6733 c4bf
00000380: 366a e713 28c2 d33f 1835 2b99 a9d9 d2bf
00000390: a03e 14ac 56a0 b23f 04ed 6035 4bcf d1bf
000003a0: 7bc5 4e63 09d0 ccbf ebb4 a43a 6ed9 d5bf
000003b0: 2919 6767 3cc6 d93f d073 e9a2 108e d4bf
000003c0: 00a9 c3ea 27ac c43f 2b29 6798 8943 c0bf
000003d0: 8078 ac25 3379 a43f b029 94ca e724 afbf
000003e0: ba80 c281 3e55 c33f 7073 341d 0f93 d0bf
000003f0: 1c3c 5f43 aee6 943f 5ec9 69e4 7066 a4bf
00000400: ea63 0589 5bc1 a43f e1d0 9269 46bd d3bf
00000410: 6381 0f2d fe4d bb3f a6cf 971a 3448 b93f
00000420: b849 5f75 1931 a5bf 2746 5c08 b6c7 aabf
00000430: 9784 9d2f 3a72 b83f 01c9 3008 ed05 d33f
00000440: 8f57 bf0d b5a1 dfbf a7b8 f3b7 f96c c7bf
00000450: 4623 c024 1fcc b23f f080 e6e1 1245 c0bf
00000460: e270 122c fc20 d83f 6251 c97b a7e3 d63f
00000470: 84c0 c4c0 af2c c2bf e7d0 9002 d393 da3f
00000480: 88c3 9403 5171 dc3f 9887 69d9 c577 8d3f
00000490: 095f 6966 e499 d23f 7c73 ee11 3668 ddbf
000004a0: b6da 3194 8653 d2bf acf2 bb03 74a0 c6bf
000004b0: 2153 d9e0 ba17 b63f 3a70 d3ac d224 afbf
000004c0: c1a9 9a6b 96dd d23f ac59 2fd8 2d2e d0bf
000004d0: ca50 cfdd 3595 b43f b459 70d1 dd7a af3f
000004e0: 16e7 4702 1576 ce3f 793d a431 bd2f bcbf
000004f0: 57de efa2 3ffb a93f ecfa ff3b cdd8 aa3f
00000500: 6cab f6e6 c698 b9bf ce8a 472d 3f90 983f
00000510: 4b96 7e61 cf1a c2bf ee51 06fc 4650 c7bf
00000520: f794 af85 8c75 923f e7b7 28bb 3756 d4bf
00000530: 6e31 2db5 ee58 d93f 67dc 1d15 ea0f d93f
00000540: c285 61db 8134 e0bf cc82 76f0 2935 c5bf
00000550: 2891 c1e5 170a c83f 6ac7 4728 82d7 c7bf
00000560: c741 d378 8502 d2bf 9799 fadb 09b4 a63f
00000570: d549 b4dd 808c 8c3f 4418 1aab 2558 d53f
00000580: ee1e e6fe b281 d93f 69c1 c436 d02c c8bf
00000590: 51c2 408c 1885 9ebf 714b 06ae b1d7 d1bf
000005a0: 29fc d3b8 50c6 c03f 8fc1 fa86 cbd0 b13f
000005b0: 7bd4 34ef b22a a2bf 02f9 2dba 9d96 c1bf
000005c0: 44d8 bfe2 d99f b73f 0e54 8091 4087 abbf
000005d0: 6da8 ce62 2783 af3f b69f 76f7 7fce 9f3f
000005e0: 2a93 d879 dc4f 93bf c1eb 852b 6ad5 b03f
000005f0: bd94 d17c fbd8 bc3f d3ea f060 a9ca a63f
00000600: 52b6 9523 6eb6 a73f 7ede 8849 efec d0bf
00000610: 19bb b8ef e931 c4bf 373f 92ab c98a c23f
00000620: 37b5 753e c7ae a1bf 0856 7dbd 82a0 dfbf
00000630: a84b 4928 cc31 d3bf 5afa 3cd2 8e8b d73f
00000640: 2e0f 7cb8 17f2 b8bf 5166 84c1 bd1a dcbf
00000650: 89ee 1d09 0716 a1bf 8724 db04 334c d0bf
00000660: 4297 aad2 fea3 d13f d719 7873 6773 cdbf
00000670: e4ef 5ca7 5a7e bd3f 4b48 b298 e306 9dbf
00000680: 9b02 b711 17aa c6bf 0c2a 1c33 26e0 a83f
00000690: 02d0 f6b7 3ed3 b13f 74d4 11fa 7d06 44bf
000006a0: 16bb 4c6e 1ae8 cc3f 6517 e9ba f661 cabf
000006b0: 710c ebaf a452 c63f d2d3 c85f 10fc 53bf
000006c0: 9ad2 9474 abc2 cb3f 25b6 ce08 57e9 c8bf
000006d0: 8dda 42a7 5879 c53f 9c16 0152 dd1c cbbf
000006e0: f85b 04d5 71f5 cd3f 09d5 51cd 49bf d3bf
000006f0: 7216 45b5 963c d0bf 6b38 02f7 5cf8 bebf
00000700: 8893 8c55 9a07 b3bf 80a6 72a4 cbd9 7fbf
00000710: 1823 83ce 0092 d53f 7876 9af9 5630 dbbf
00000720: ef09 c663 8126 debf 2ff9 c300 8657 99bf
00000730: 75e2 96fa 65e9 b5bf d4b3 420b 3a8e cdbf
00000740: 1536 e9c7 7fca d3bf f45d 1f3e f9f6 ba3f
00000750: 8c19 44bb c825 b23f c103 5f4c 3d21 c93f
00000760: 3a4a be24 9f8a d0bf a2d1 4c2c 803e d03f
00000770: 6586 ac08 270e bdbf 4beb 04bb a7a5 a23f
00000780: fcac 2841 c4ff b2bf 38e9 34be 8ddf b93f
00000790: 0c68 67d8 e782 c83f 44fe 0850 a0e3 933f
000007a0: f337 e9f3 052b d2bf 23ab 1259 3194 d83f
000007b0: bab1 a9b9 7822 dabf 63f1 ce4f 4d1b c03f
000007c0: f2d9 8748 f4e3 a0bf 6b20 bd7c 1b33 cabf
000007d0: 77d6 43ff a584 96bf 8b32 f169 6f77 d1bf
000007e0: c0e3 2dd6 da8e dabf b4bd ef09 e9da dabf
000007f0: 4072 accb 8331 ca3f 54e6 901e f7a6 d53f
-0.9090378837951851 0.06848782103806983 -0.35863503622005344 0.17188524989942666 0.3483887433373035 -0.43787132441724796 -0.11083262773567604 -0.4044505814009557
0.2837479455326638 0.21811772939051866 -0.35017932336750246 0.20595375617106548 -0.3912704527108627 -0.49176706807009263 0.014817954680976131 0.3350522088911718
-0.0941302270230675 0.04486562317995435 0.47942929763473197 -0.3531329988175438 -0.4957965858022193 -0.2845899009306918 0.4623339045407776 -0.2964848709273391
0.22037698724974697 -0.46011122229554813 0.06111589511820059 -0.39293725483667896 0.38892137464038723 0.44926448282006737 -0.26732642523657213 -0.3022000286998563
-0.05474987299638445 -0.23583901471555468 -0.05127487028877531 0.14834023690390452 0.4919785305965695 0.14479148101066686 0.04233591442714034 0.3050170499238747
0.4175949858471063 -0.08316404279532556 -0.08655907709035116 0.14398674390974894 -0.05906866931780726 -0.08825186549421786 -0.39371360848801623 0.14518182574765193
-0.13799771344858036 -0.20669411449973474 0.2991476005089191 -0.0262300242136424 -0.12803242917773416 0.39335742171543764 0.1368005900733933 0.010611000487169786
-0.0235799615506862 -0.07392401578392893 -0.023337798742354088 0.487635725733907 -0.10173122015083902 0.355077239774537 0.31747141830424397 0.4337503445802956
0.28379169072087296 -0.42252420983326167 -0.09177758058572413 -0.2984506195049543 -0.34288876337378554 0.17821836347358383 -0.38063256944373514 -0.30947625058586775
-0.23127978698609283 0.3437612230596635 -0.1795377854056187 0.2731899000119801 -0.1340993274076947 0.2738207756188228 -0.37534245804145816 0.200047951151502
0.039425673724090546 0.35790705190884115 -0.4049054536397092 -0.37265409817511563 -0.3565584978628792 0.2729252749559997 0.14933490576107167 0.3568378150132244
-0.07967361450331178 -0.22496961521736247 -0.206950793434262 -0.21589814632220755 0.11276647616396317 -0.09853784175179718 -0.46680272126687433 -0.2768779684147618
0.10320545210629388 -0.3272882218035248 0.04836232967024861 0.029606852315537703 0.045322201123885346 -0.22465089753832168 -0.1716416568344611 -0.24818710507670347
-0.17536490514998654 -0.18759956254666646 -0.33902872218157243 -0.09193192325212991 -0.25957563897930636 -0.25729813933304163 -0.029404034970709696 -0.15781875544047855
0.30872537559267543 -0.2945350642956597 0.07275907231473377 -0.27827720844989323 -0.22509877537735776 -0.34139590956586 0.40272436235354064 -0.32117095860831757
0.16150378192043746 -0.12706108037520755 0.039987181042520525 -0.060828441122868226 0.1510389455406818 -0.25897577144660655 0.020411227094708648 -0.03984406269309447
0.04053770110721884 -0.3084274321547707 0.10665882682906651 0.09875798844569647 -0.041390224054015545 -0.05230492450767726 0.09549297010882395 0.2972366886125571
-0.4942448267223591 -0.18301316720994018 0.07342714926938951 -0.12710796385091028 0.37701324752721466 0.3576449116565269 -0.14198872482802838 0.4152724766784232
0.4444162878963245 0.014388604829210824 0.2906428337205261 -0.45948554755323534 -0.2863480040754597 -0.17677164251644706 0.08629959096408558 -0.060827811810412816
0.2947746325322918 -0.252818547361495 0.08040177026061027 0.06148427182795349 0.23797857867594335 -0.11010343992187711 0.05074499954201588 0.05243531567974977
-0.09998744143255828 0.023987757815016768 -0.14144317875359244 -0.18213736825840904 0.018026538524186866 -0.3177623107648046 0.39605300610562366 0.3915963369576673
-0.5064095768722654 -0.16568493119577565 0.1878080245834408 -0.18626429526153326 -0.28140389251077774 0.04434233484544164 0.013939863935353106 0.3335050745885193
0.3985412110564387 -0.18886759447333226 -0.029804595527993808 -0.2787899207552789 0.1310521032791894 0.06959220929525699 -0.03548201723098373 -0.13740893927383274
0.09228288446306104 -0.0537662675489302 0.06154749947684555 0.03106117198845456 -0.018859333931817414 0.06575645029617673 0.11268588826495125 0.04451493557322341
0.04631370720276763 -0.26446134739988014 -0.15777324872166146 0.14486046674255146 -0.03453657758186995 -0.49417179589121973 -0.2999143975659373 0.36789293795655953
-0.09744404081362454 -0.4391321554008743 -0.03337118135729351 -0.2546508357450609 0.27563448498618837 -0.2300843538107091 0.11520926080714805 -0.028346592135285936
-0.17706573834404513 0.04858512281323976 0.06962959281264605 -0.0006111254807722581 0.22583322892884244 -0.2061146176003447 0.17439707364801252 -0.0012197647003067036
0.21687834923217936 -0.19462097101261225 0.16776569525764665 -0.21181837562669592 0.23405287648412787 -0.3085503106188559 -0.25369804098259074 -0.12097722082600774
-0.07433476055719102 -0.007776065328621962 0.3370363251420243 -0.4248254239590561 -0.47110018485559996 -0.024747937962268537 -0.08559262626557447 -0.23090291547614916
-0.30923456690365586 0.1053310181299521 0.07088903972553434 0.1963268874078761 -0.25846079433646063 0.25381473852328373 -0.11349719964757694 0.03642009885739713
-0.07421518889229967 0.10106740850179541 0.1914949232730695 0.019423012623745586 -0.2838759309714753 0.38404496859100073 -0.40835397845401256 0.12583319088833908
-0.03298915276893756 -0.20468467322121184 -0.021990388589037537 -0.27291474672237176 -0.4149691669077207 -0.4196112248455066 0.20463607258797545 0.33831575379335743
